PricePulse/app/src/main/assets/electricity_forecast.tflite (tflite, 68220 bytes, 2 tensors)

sequential_18/dense_22/BiasAdd/ReadVariableOp f4 [1440]
000000 55 85 4c 3d fd e5 0a bb 2c 29 88 bc fa a1 91 bc
       0.049931843 -0.0021194213 -0.016621195 -0.017777432
000010 ee 84 26 bc cc b5 48 3c f5 f2 5c 3c 01 c1 dc 3b
       -0.010163529 0.012250375 0.01348566 0.006736875
000020 06 5a 82 bf 04 44 1b 3f 12 80 a1 3d b9 81 88 3c
       -1.0183723 0.6065066 0.078857556 0.01666342
000030 f4 ef fa bc 31 82 33 bd 14 a7 b9 bb 38 96 31 3c
       -0.030631997 -0.043825332 -0.005665669 0.010839038
000040 fa c7 5d 3c 40 1c dd 3b 87 75 80 bf 3f 17 1b 3f
       0.013536448 0.0067477524 -1.0035866 0.60582346
000050 83 49 af 3d eb d7 9c 3c 64 d2 2f bd ca 21 8c bd
       0.08558943 0.019145926 -0.042925254 -0.06842382
000060 b7 54 b8 b9 9f 73 20 3c 99 9d 5e 3c 45 7a dd 3b
       -0.00035158332 0.009793191 0.013587379 0.0067589604
000070 00 5f 70 bf 91 9c 20 3f 5e 5d a4 3d 44 ce d9 3c
       -0.9389496 0.627389 0.08025621 0.026587613
000080 63 f9 3b bd 88 8c a2 bd 9e e7 a8 3b 11 0d 28 3c
       -0.04589213 -0.079369605 0.005154564 0.0102570215
000090 ea 72 5f 3c dc d6 dd 3b 61 1e 5a bf 40 9e 2a 3f
       0.0136382375 0.006769998 -0.85202605 0.6664772
0000a0 f6 27 a0 3d 18 d5 a3 3c 4b 38 70 bd 26 29 8d bd
       0.07820122 0.019999072 -0.058647435 -0.06892614
0000b0 b2 0a 1f 3c b1 65 38 3c 0d 48 60 3c 35 34 de 3b
       0.00970714 0.011254714 0.013689053 0.006781126
0000c0 a6 b5 3e bf e7 8b 32 3f 69 66 85 3d a0 58 a7 3c
       -0.74495924 0.69744724 0.06513674 0.020428002
0000d0 50 bd 78 bd 5b 0e 79 bd b9 ae 3b 3c be 8f 44 3c
       -0.060727417 -0.060804706 0.011455231 0.011997161
0000e0 ef 1c 61 3c 5d 8d de 3b 25 68 2a bf ab 18 3a 3f
       0.013739808 0.006791754 -0.6656516 0.7269389
0000f0 f1 e7 62 3d bd ec 6d 3c 1b 96 2f bd 16 fd 39 bd
       0.055396978 0.014521775 -0.04286776 -0.045407377
000100 10 db 32 3c 9f af 30 3c 73 f0 61 3c 4f e4 de 3b
       0.010916486 0.010784059 0.013790238 0.006802119
000110 73 09 19 bf bd e6 3e 3f a6 63 34 3d 53 99 a0 3c
       -0.59780043 0.7457083 0.044040345 0.01960436
000120 70 fa 29 bd 73 0c 0c bd f1 66 16 3c 18 fa d4 3b
       -0.0414986 -0.03419156 0.009179817 0.00649954
000130 11 c4 62 3c 7d 3a df 3b 1c ec 0e bf 93 ef 40 3f
       0.013840691 0.0068123923 -0.55829024 0.7536556
000140 49 74 13 3d 5f a2 03 3d 5d dd d3 bc ca d9 bc bc
       0.03599957 0.03213727 -0.02586239 -0.023053069
000150 df c9 06 3c f5 93 aa 3a 45 99 63 3c 5d 94 df 3b
       0.008226841 0.0013014065 0.013891523 0.006823106
000160 c8 bb 0a bf f1 09 40 3f 1f 47 19 3d 21 8d d3 3c
       -0.5419278 0.7501517 0.037421342 0.025824131
000170 d0 93 63 bc 74 75 df bc 50 ff 14 3c 69 cd 8f bb
       -0.013890222 -0.027277686 0.009094074 -0.0043885005
000180 43 6f 64 3c 2e f4 df 3b 42 5e 0c bf 4b c0 3e 3f
       0.0139425425 0.0068345284 -0.54831326 0.74512166
000190 ca 65 21 3d 1e 14 aa 3c 1d 75 c8 bc 84 22 aa bc
       0.039403714 0.020761546 -0.024469906 -0.020768411
0001a0 4e 4b 2e 3c 81 43 17 bc 88 46 65 3c e1 56 e0 3b
       0.010638071 -0.009232403 0.013993867 0.0068462943
0001b0 a6 5f 0f bf 4c 84 3b 3f 8e d0 3d 3d 79 3c 94 3c
       -0.5600532 0.73248744 0.04634147 0.018095242
0001c0 aa 2e 02 bd 09 f0 0b bd 1a 8b 3c 3c c6 4c 39 bc
       -0.031782784 -0.034164462 0.011507774 -0.011309808
0001d0 0e 1d 66 3c 66 b5 e0 3b 89 01 17 bf 53 92 37 3f
       0.014045013 0.006857562 -0.5898672 0.7170765
0001e0 5a 8d 50 3d ab 15 77 3c 8f d5 b6 bc 09 aa 0c bd
       0.050916053 0.01508085 -0.02231863 -0.034341846
0001f0 9d c4 27 3c 2b 85 38 bc a2 f2 66 3c ca 0f e1 3b
       0.010239747 -0.0112622185 0.014095934 0.0068683373
000200 b2 5e 1d bf a9 b8 35 3f 4d 7b 35 3d df a2 03 3c
       -0.6147262 0.70984894 0.044307042 0.008034437
000210 bb 6c fc bc 3f a3 1f bd 22 5c aa 3b b7 b9 20 bc
       -0.030813565 -0.038974043 0.0051989714 -0.009809903
000220 a0 c4 67 3c 62 5c e1 3b a4 34 1f bf 5a e7 33 3f
       0.014146 0.006877468 -0.621897 0.7027489
000230 2a 26 fc 3c 22 2d 0c 3c af 8b d5 bc 9c b4 da bc
       0.030779917 0.008555682 -0.026067583 -0.02669745
000240 d7 02 06 ba 3f a4 0e bc 92 96 68 3c 84 a1 e1 3b
       -0.00051121175 -0.0087061515 0.014196055 0.0068857092
000250 09 fc 20 bf 97 85 36 3f 6b 31 7e 3c 80 e0 98 3c
       -0.62884575 0.7129759 0.015514712 0.018661737
000260 a1 35 d1 bc a3 26 0a bd 8f 0d dc bb 34 c4 0d bc
       -0.025538268 -0.033728253 -0.0067154835 -0.0086527355
000270 3f 67 69 3c 23 e7 e1 3b 9f c5 19 bf bf 5e 3a 3f
       0.014245807 0.0068940087 -0.6006717 0.7280082
000280 ba 98 b3 bb b0 ad e8 3b 86 3c 84 bc 85 43 c3 bc
       -0.005480853 0.0071007833 -0.016142141 -0.023835907
000290 b9 bc 39 bc e1 47 17 bc 29 3a 6a 3c d4 33 e2 3b
       -0.011336499 -0.009233446 0.014296093 0.006903151
0002a0 ee e9 10 bf 49 e4 3e 3f 47 22 bc bc 6d e6 f0 3b
       -0.5660695 0.74567086 -0.022965563 0.0073516876
0002b0 b3 a0 19 bc b8 41 c9 bc d3 fe 57 bc 2a cc 1c bc
       -0.009376693 -0.02456747 -0.013183313 -0.009570161
0002c0 b4 0c 6b 3c 4e 84 e2 3b 6d 80 07 bf d7 cb 45 3f
       0.01434629 0.0069127446 -0.5293034 0.7726416
0002d0 34 9e 16 bd 8b e1 00 3c e6 2a 44 bb ed 9e 4b bc
       -0.036771968 0.007866274 -0.0029932796 -0.012428028
0002e0 32 8b 50 bc 3a bf 02 bc b0 e0 6b 3c c1 d7 e2 3b
       -0.012728499 -0.007980162 0.014396831 0.0069226925
0002f0 1d 73 f3 be bc 52 4a 3f 6d f2 3a bd 68 a4 5b bb
       -0.47548762 0.7903249 -0.04564135 -0.0033514742
000300 68 8e f2 3b c0 c5 43 bb ea 38 35 bc 49 b2 59 bb
       0.00740223 -0.0029872507 -0.011060933 -0.0033217838
000310 c3 b5 6c 3c 0d 2d e3 3b 13 28 e2 be 0a a1 4d 3f
       0.014447632 0.0069328607 -0.441712 0.8032385
000320 7a 0e 2f bd 60 e2 63 3b cb 89 97 3c ba 74 63 bc
       -0.042738415 0.0034772381 0.018498322 -0.01388281
000330 bc 21 1e bc 76 19 10 3b 00 8b 6d 3c 3e 86 e3 3b
       -0.009651598 0.0021987832 0.014498472 0.006943493
000340 ae 77 d8 be b4 7c 4f 3f 4c af ed bc 1d ee 11 bc
       -0.42278808 0.81049657 -0.029014252 -0.008906868
000350 8f 9b ed 3c c4 5d 54 3a 5e 20 1e bc db 06 ff 3b
       0.02900484 0.00081011304 -0.009651272 0.0077827997
000360 c3 5f 6e 3c 1d de e3 3b 1e 68 d5 be 41 56 4b 3f
       0.014549199 0.006953968 -0.41680998 0.7942849
000370 99 de ad bb 32 87 aa b9 96 b4 73 3c 2a 9a 2b bb
       -0.0053060767 -0.00032525655 0.014874598 -0.0026184418
000380 80 aa 27 bc df b8 45 3c f5 33 6f 3c d5 34 e4 3b
       -0.010233521 0.0120680025 0.01459979 0.006964306
000390 34 f6 ec be 8c ba 41 3f a4 bf 8e 3c 2f 2a eb ba
       -0.46281588 0.7567527 0.017425366 -0.0017941649
0003a0 68 4e e0 3b 42 64 bf 3b 9c 32 2e bc f7 52 5f 3c
       0.0068452843 0.005840809 -0.010632183 0.01363062
0003b0 20 08 70 3c b5 8a e4 3b b3 14 0d bf a5 26 35 3f
       0.014650375 0.006974543 -0.5510971 0.7076209
0003c0 bd c7 34 3d 93 f3 7c 3c a6 f1 41 bc 8b 47 be bb
       0.044135798 0.015438932 -0.011837399 -0.0058068684
0003d0 9e ef 11 bc 0e b6 53 3c b9 dc 70 3c a0 d9 e4 3b
       -0.008907227 0.012921823 0.014701062 0.0069839507
0003e0 4e 2d 28 bf 4c c8 2c 3f c8 f3 7e 3d 17 90 f6 3b
       -0.6569413 0.6749313 0.062244207 0.007524501
0003f0 15 1a e4 bc 32 1a fc bc 09 02 90 bb 2b 64 38 3c
       -0.027844468 -0.03077421 -0.004394774 0.011254351

sequential_18/dense_22/Tensordot/MatMul1 f4 [1440, 10]
000000 b0 e9 72 3f d6 c0 a8 3b 59 a2 f5 bb 45 f4 61 bb
       0.9488783 0.005149941 -0.00749616 -0.0034477871
000010 55 ee ff 3c 28 e9 5a bd 13 e7 20 bc b0 b7 3a bd
       0.031241575 -0.05344501 -0.009820717 -0.045585334
000020 12 f2 99 3c ea 2f a9 bc ee 74 82 3d c8 04 ca 3e
       0.018792186 -0.02065273 0.06369959 0.39456773
000030 6e 80 52 bd 48 5b c7 3d 50 2d 4f 3b 63 9b 7d 3c
       -0.05139201 0.097342074 0.0031612702 0.015478942
000040 b4 99 a2 bc 17 d3 fe 3c 4f ac 07 bd 61 55 0d bc
       -0.019848682 0.031106515 -0.03312331 -0.008626313
000050 7a cd 5a bd b2 ea 8e 39 c7 97 5d 3f be 24 68 3c
       -0.053418614 0.00027259212 0.8655972 0.014168916
000060 7a 84 fa bc 4c b8 1a 3d fc 9d 7e bc 9c a5 d7 bc
       -0.030580748 0.037773415 -0.015540596 -0.026324086
000070 36 0c c8 bb 98 fe ef 3b 34 50 d2 bd 48 bd 9b 3c
       -0.0061049713 0.007324051 -0.10269204 0.019011155
000080 da 24 a2 3d 01 78 43 3f 72 59 62 bc ef 68 f8 3c
       0.07917185 0.76354986 -0.013815271 0.030323474
000090 aa f6 73 bd 35 0c 8d bd ee 3a 84 bb e4 6c 5d 3c
       -0.05956141 -0.06887094 -0.0040353453 0.013514731
0000a0 73 95 92 38 0c 1a 19 37 bf f4 23 b9 48 4b d5 38
       6.9896596e-05 9.125575e-06 -0.00015636066 0.00010170654
0000b0 a2 41 77 3f fb 8f 84 3e 69 ca cd 38 fd b7 35 38
       0.9658452 0.25891098 9.8128636e-05 4.3325115e-05
0000c0 ff be ab bb a7 6c a8 3b 29 ab 1d b9 0e 5d 21 b7
       -0.0052412744 0.0051399055 -0.00015036449 -9.618014e-06
0000d0 cb de 0b 39 a0 f9 e5 b8 d3 79 84 be 2e 3a 77 3f
       0.0001333907 -0.00010966067 -0.25874195 0.9657315
0000e0 4e 33 17 b9 9d 2f a8 b8 78 c2 d7 3b 15 95 d2 bb
       -0.00014419595 -8.019733e-05 0.006584462 -0.0064264634
0000f0 fe 01 95 b9 05 da 90 b7 c1 86 6b 38 87 a4 66 b8
       -0.0002842098 -1.7267661e-05 5.6153865e-05 -5.49895e-05
000100 5e 57 53 38 bf ac 00 b9 12 f6 7f 3f 27 4c 07 3a
       5.0387687e-05 -0.00012271384 0.9998485 0.0005161189
000110 11 1b ed 3b 76 a7 e4 bb 5e 91 c1 bc fd f1 1e 3a
       0.0072358926 -0.0069779707 -0.023628887 0.0006063281
000120 4e a4 3a ba 0c bb bc ba 12 56 93 bb 06 20 4c bb
       -0.000711982 -0.0014399006 -0.0044963444 -0.0031147017
000130 b9 2f fa bb 03 73 7a 3f db 0c b5 39 9a d8 59 bb
       -0.0076350835 0.97831744 0.00034532588 -0.0033240677
000140 d0 45 bb ba 06 41 aa ba 80 4e 26 3b 4b c4 35 bb
       -0.0014287774 -0.0012989349 0.002537638 -0.0027735408
000150 99 f2 c9 3b c2 3d a2 bb ec 0a 48 bb 67 c2 00 bb
       0.006162953 -0.0049512098 -0.0030524088 -0.0019647123
000160 4e d4 db 3e 97 36 06 3f cf cc 4f bc d5 8d 5b bb
       0.42935413 0.5242705 -0.0126831075 -0.0033501287
000170 65 e6 e4 3b 89 7a 96 bb 2e 3e 9e 3c 0e f0 b1 bc
       0.006985473 -0.004592244 0.019316759 -0.021720912
000180 6a 81 95 bc b5 03 34 bc 15 3a 96 3e 5c 13 30 3f
       -0.018250186 -0.010987212 0.29341188 0.6877954
000190 51 48 67 3f 4e 3b ec 3b 05 f5 30 bc 12 4e 2f 3b
       0.9034472 0.007209218 -0.010800605 0.0026749414
0001a0 d1 aa 95 3d 4a 5b b6 bd ab ec 8e bc f2 30 a6 bd
       0.07307971 -0.08904131 -0.017446836 -0.08114804
0001b0 a0 36 e7 3c 2b 8d 0d bd 46 89 bb 3d a6 a9 81 3e
       0.02822429 -0.034558456 0.09157042 0.25324744
0001c0 78 a7 86 bd 6e c0 ed 3d 0f da b4 bb ae 92 14 3c
       -0.06574911 0.11608969 -0.0055191587 0.009068174
0001d0 02 4c a6 bc a5 a1 35 3d cd 42 e7 bc 0e ec 37 bc
       -0.020299915 0.04434361 -0.028230095 -0.011225713
0001e0 e8 2e 49 bd c2 e9 f3 ba 74 fe 49 3f 92 4b 05 3d
       -0.049117 -0.0018609094 0.7890389 0.032542773
0001f0 41 ae 8a bd 15 89 8f 3d 43 0a 8e bc 3a 45 9d bb
       -0.067715175 0.07008568 -0.017338878 -0.004799512
000200 14 41 f3 bb 7b 25 92 3c 44 78 d6 bd b2 2f d4 3c
       -0.0074235294 0.017840138 -0.104721576 0.02590165
000210 c0 c9 bf 3d f2 76 2e 3f d0 4a 29 bd 11 b9 7b 3d
       0.09364653 0.68150246 -0.041331112 0.06145579
000220 ae 75 9e bd 21 49 98 bd d0 3f 5b bc ed e9 e8 3c
       -0.07737289 -0.07435823 -0.013381913 0.028431857
000230 b7 fc d8 38 9b 77 21 38 76 15 c9 b8 69 2d 0e 39
       0.000103467544 3.8496783e-05 -9.588424e-05 0.00013559092
000240 d3 b0 5d 3f 38 07 00 3f d5 57 82 38 2f 2a 2a 38
       0.8659794 0.50011015 6.215243e-05 4.0570445e-05
000250 a6 45 32 bb 0f 3e 31 3b a5 1f 4e b9 1e da 13 b8
       -0.0027202158 0.0027045046 -0.0001965748 -3.525067e-05
000260 cc 24 1b 39 df 2d 30 b9 a6 f8 ff be 4d a9 5d 3f
       0.0001479566 -0.00016801756 -0.4999439 0.8658646
000270 f5 35 0e b9 ae e9 9e b8 d4 f8 be 3b 96 80 bc bb
       -0.00013562276 -7.577553e-05 0.0058280025 -0.0057526333
000280 3a 35 95 b9 e8 3d 90 b7 08 6b 6b 38 50 99 66 b8
       -0.00028459152 -1.7194965e-05 5.6128047e-05 -5.4979057e-05
000290 bf da 52 38 34 93 00 b9 06 f6 7f 3f 2b c8 a5 3a
       5.0271625e-05 -0.00012261869 0.99984777 0.0012648156
0002a0 55 f5 ec 3b 7c 83 e4 bb fd 8d c1 bc 52 f7 1e 3a
       0.0072313943 -0.006973682 -0.023627276 0.0006064075
0002b0 b9 99 3a ba 1d b1 bc ba 56 53 93 bb 76 19 4c bb
       -0.00071182434 -0.0014396046 -0.0044960184 -0.0031143106
0002c0 35 52 08 bc 0e 73 7a 3f 6a d7 b2 39 59 91 59 bb
       -0.008320381 0.9783181 0.00034111302 -0.0033198206
0002d0 55 f4 29 bc 61 8f 68 bb 79 d2 ea 3b 51 bf 9a bb
       -0.010373195 -0.003548585 0.0071662036 -0.0047225137
0002e0 31 b2 a6 3c 2a 2e b1 bc 9b 6c 86 bc 7e cb 06 bc
       0.02034864 -0.021628458 -0.016409209 -0.008227227
0002f0 43 a0 ce 3e 89 51 04 3f dd fe fe bb cf 98 a8 bb
       0.40356645 0.5168691 -0.007781847 -0.0051451693
000300 9a 33 55 3c 34 bc 22 bc 74 21 27 3d ca 36 ef bc
       0.013012791 -0.009932566 0.040803388 -0.02920093
000310 55 cd eb bc ca 8c 8c bc 27 61 82 3e 56 2d 2f 3f
       -0.028784433 -0.017156977 0.25464746 0.6842855
000320 a3 8b 59 3f 79 6b 2f 3c 06 6f 2f bc ba fe f4 3b
       0.84978694 0.010706776 -0.010707622 0.007476655
000330 03 2f f5 3d fa 48 e7 bd 5c 78 ea bc d3 f3 01 be
       0.119718574 -0.11293216 -0.028621845 -0.12690668
000340 c5 5b ce 3c 2c 30 23 bd 83 02 bc 3d d1 d4 17 3e
       0.025190243 -0.039840862 0.091801666 0.14827277
000350 77 3c 8c bd f3 38 e6 3d 15 b5 c0 3b 5c 45 98 3c
       -0.0684747 0.11241331 0.0058809617 0.01858776
000360 fd cb f0 bc 1b b1 34 3d d1 1f 0b bd b0 db 91 bc
       -0.029394144 0.044114213 -0.03396589 -0.01780495
000370 b3 7c 0a bd 68 cf 9c bc 03 04 3c 3f be f5 11 3d
       -0.03381033 -0.019141868 0.7344362 0.03563475
000380 c9 a0 c6 bd e6 fa b5 3d 45 e3 0c bc 73 95 81 3c
       -0.09698636 0.08885746 -0.008599107 0.015818333
000390 63 7e ae bb 23 14 c8 3c 62 7b b2 bd 2f 57 3f 3c
       -0.005325125 0.024423664 -0.0871494 0.011678501
0003a0 3b 2d dd 3d a0 43 1e 3f e8 7a 99 bd a2 24 aa 3d
       0.10799643 0.6182194 -0.07494146 0.083077684
0003b0 b1 13 ac bd 0a 24 64 bd 2b 72 d7 bc ec 8a 32 3d
       -0.08402193 -0.055698432 -0.026299557 0.043589517
0003c0 4e 5d 1f 39 44 39 50 38 f1 4a f5 b7 fc 1c 3e 39
       0.0001519818 4.9644397e-05 -2.9241173e-05 0.0001813061
0003d0 3a 01 35 3f 53 06 35 3f b2 c8 84 b8 32 fa f4 37
       0.70704997 0.70712775 -6.331633e-05 2.9203573e-05
0003e0 e7 45 92 39 b3 f0 1e b9 84 56 a0 b9 9a 03 72 b8
       0.0002789937 -0.00015157722 -0.00030582037 -5.770065e-05
0003f0 d6 c3 21 39 ad a2 8b b9 3d fd 34 bf be f9 34 3f
       0.00015427111 -0.0002663335 -0.7069891 0.70693576
